best_model.pth (torch, 3876 bytes, 8 tensors)

encoder.0.weight f4 [8, 4]
0.39348602 -0.23474857 0.19315076 -0.0696643 -0.14340246 -0.37654004 0.137768 -0.2638618
0.09499818 -0.24536727 0.06906721 -0.29860717 0.018574059 -0.18507057 0.10670543 0.20855537
-0.4964841 0.27799678 0.6360217 0.7447008 0.33663398 -0.3875376 -0.30481544 0.035280548
-0.07274783 -0.18037958 -0.07967432 0.037293494 0.42897677 0.36815414 0.38969657 -0.08219306
00000000: 0077 c93e ee61 70be 50c9 453e 28ac 8ebd
00000010: 18d8 12be dbc9 c0be 0e13 0d3e e518 87be
00000020: 688e c23d 8f41 7bbe 1c73 8d3d 0ae3 98be
00000030: a028 983c 2483 3dbe 6088 da3d 8a8f 553e
00000040: 2a33 febe 9855 8e3e 51d2 223f b6a4 3e3f
00000050: 4a5b ac3e 546b c6be c510 9cbe 5682 103d
00000060: d0fc 94bd 6db5 38be 4a2c a3bd 10c1 183d
00000070: d8a2 db3e b37e bc3e 4f86 c73e d654 a8bd

encoder.0.bias f4 [8]
0.55597764 0.1587991 0.19926654 -0.5317241 0.55916953 0.9067284 0.47659957 0.3056921
00000000: 8d54 0e3f 3b9c 223e 870c 4c3e 121f 08bf
00000010: bc25 0f3f 5a1f 683f dc04 f43e ad83 9c3e

encoder.2.weight f4 [4, 8]
0.19085799 -0.12151901 0.014632147 -0.35931498 0.24935098 -0.23953535 -0.1088856 0.2392629
0.03372342 -0.26514366 -0.10449396 -0.3071909 -0.34479818 -0.22039506 -0.079860605 0.34142682
0.15142302 0.15947358 -0.5974775 -0.101645105 0.31383306 -0.46925253 -0.11336067 -0.14254186
0.2972684 -0.039993983 -0.00026191748 0.0426171 0.5374189 -0.6694919 -0.5523555 0.4640289
00000000: 4770 433e f5de f8bd acbb 6f3c 22f8 b7be
00000010: dd55 7f3e c148 75be 6aff debd 5501 753e
00000020: 9221 0a3d e9c0 87be ee00 d6bd 2048 9dbe
00000030: 6389 b0be 3eaf 61be f58d a3bd 7fcf ae3e
00000040: a30e 1b3e 0b4d 233e 49f4 18bf 4f2b d0bd
00000050: baae a03e de41 f0be a429 e8bd 7ef6 11be
00000060: 9033 983e bbd0 23bd f851 89b9 458f 2e3d
00000070: 4994 093f d263 2bbf 2c67 0dbf 3295 ed3e

encoder.2.bias f4 [4]
0.042950645 -0.15333508 0.08623631 0.14641021
00000000: 04ed 2f3d df03 1dbe aa9c b03d 8fec 153e

decoder.0.weight f4 [8, 4]
0.013527395 -0.055990934 -0.10679499 0.36606592 -0.44923204 -0.3452729 -0.2763626 -0.4440285
0.2506261 -0.0020022988 -0.31243584 -0.3805601 0.4430068 0.34031266 0.43470812 -0.43110746
-0.028552115 -0.37326306 -0.046305835 -0.1214897 0.36280966 0.32490587 0.535144 0.44728678
-0.20906377 0.30109596 -0.030727169 0.6283853 0.00069037767 -0.1119743 -0.2214997 0.06558904
00000000: 02a2 5d3c c056 65bd 55b7 dabd fe6c bb3e
00000010: be01 e6be 9cc7 b0be 667f 8dbe b457 e3be
00000020: 1052 803e 0039 03bb 97f7 9fbe c6d8 c2be
00000030: cad1 e23e 763d ae3e 1092 de3e 1eba dcbe
00000040: 20e6 e9bc 561c bfbe 30ab 3dbd 98cf f8bd
00000050: 30c2 b93e 105a a63e 32ff 083f c602 e53e
00000060: d014 56be 4029 9a3e 8bb7 fbbc dcdd 203f
00000070: 76fa 343a c852 e5bd d1d0 62be 8c53 863d

decoder.0.bias f4 [8]
0.5490474 -0.25399983 -0.09618034 -0.31746447 -0.37669027 0.13390884 0.074580245 0.19632685
00000000: 5f8e 0c3f 440c 82be 33fa c4bd b48a a2be
00000010: 8cdd c0be 661f 093e 87bd 983d e809 493e

decoder.2.weight f4 [4, 8]
-0.24049388 -0.008595554 0.27880692 -0.040783312 0.12834887 0.05994521 0.054447327 0.11828233
-0.0057348367 0.07569507 -0.06994884 0.31946218 0.35194877 0.2533121 0.24135277 0.19240828
0.51888496 0.24890487 -0.08549911 -0.039259873 0.066706784 0.43517718 0.3443981 0.15546232
-0.06483741 -0.13989079 0.20277514 0.11802601 0.2533383 0.42914733 -0.027408414 -0.01677373
00000000: 0744 76be 5ed4 0cbc c8bf 8e3e 670c 27bd
00000010: e36d 033e 1c89 753d 2904 5f3d 023e f23d
00000020: 4ceb bbbb 0406 9b3d 5641 8fbd 8c90 a33e
00000030: a132 b43e 20b2 813e 2e25 773e ad06 453e
00000040: a5d5 043f ebe0 7e3e 281a afbd f6ce 20bd
00000050: 919d 883d 8bcf de3e f354 b03e 8431 1f3e
00000060: 7ac9 84bd 883f 0fbe 49a4 4f3e 9fb7 f13d
00000070: 8fb5 813e 33b9 db3e 9c87 e0bc 1069 89bc

decoder.2.bias f4 [4]
0.10908431 0.18840703 0.11814185 0.16080609
00000000: 9867 df3d c6ed 403e 5bf4 f13d 5aaa 243e
